cifar_net.pth (torch, 251604 bytes, 10 tensors)

conv1.weight f4 [6, 3, 5, 5]
0	0x3edba1bb	0.42896828
1	0x3f83e5e3	1.0304531
2	0x3f414e2f	0.75509924
3	0x3f696a03	0.91177386
4	0x3f0621fe	0.5239562
5	0x3f0dc8ff	0.5538482
6	0x3f376ccd	0.7165039
7	0x3f34aa3e	0.7057227
8	0x3ed3bcab	0.4135488
9	0x3eb3673d	0.35039702
10	0xbeee085d	-0.46490756
11	0xbf0e72f2	-0.5564414
12	0xbf441d5f	-0.76607317
13	0xbf4717e9	-0.7777086
14	0xbe0fad27	-0.14030896
15	0xbe879707	-0.26482412
16	0x3d65584f	0.05599242
17	0x3d072c42	0.033001192
18	0x3db1dce1	0.086847074
19	0x3d1aac2c	0.037761852
20	0xbf4f99e2	-0.8109418
21	0xbec9932a	-0.3937009
22	0xbf17f52a	-0.59358466
23	0xbef6adf1	-0.48179582
24	0xbf1e385d	-0.61804754
25	0xbe95587d	-0.29169074
26	0x3eadc450	0.33938837
27	0x3ea459bb	0.3209971
28	0x3e5f6087	0.21814166
29	0xbe1c1334	-0.152417
30	0xbee1b9e4	-0.44087136
31	0xbc9fb639	-0.01949607
32	0xbde2bfd9	-0.11071748
33	0xbe5a9e3f	-0.21349429
34	0xbedb6190	-0.42847872
35	0xbf3c63b4	-0.73589635
36	0xbf5fc029	-0.8740259
37	0xbf761dff	-0.9613952
38	0xbf40de64	-0.7533934
39	0xbed75bb5	-0.42062154
40	0x3e571f25	0.21007974
41	0x3e878af8	0.26473212
42	0x3e7a427a	0.24439421
43	0x3ed9a64e	0.42509693
44	0x3ed857fe	0.42254633
45	0x3d653b50	0.055964768
46	0x3e2ef57d	0.17085834
47	0x3e93030f	0.2871327
48	0x3e17e615	0.14833863
49	0xbdd927a6	-0.106032655
50	0xbe1cccab	-0.1531245
51	0x3e0dc85f	0.13845967
52	0x3c8ad4f7	0.016947253
53	0x3e92cd5b	0.286723
54	0xbd98ba4b	-0.074574076
55	0xbe86e544	-0.2634679
56	0xbe195ea9	-0.14977516
57	0xbe12aa8d	-0.14322872
58	0xbe25404a	-0.16137806
59	0xbe9fafaa	-0.3118871
60	0xbe37d521	-0.17952396
61	0xbeb0c46d	-0.3452486
62	0xbf343c44	-0.7040446
63	0xbf130a0e	-0.5743722
64	0xbde86b4a	-0.11348589
65	0x3f0d8d02	0.55293286
66	0x3f2df2e5	0.6794875
67	0x3f2c2d21	0.6725636
68	0x3f4f0580	0.8086777
69	0x3f29a221	0.66263014
70	0x3d9e62c2	0.0773368
71	0x3e86060b	0.26176485
72	0x3ea4e519	0.32206038
73	0x3e80f4be	0.25186723
74	0x3e50b2fc	0.20380777
75	0x3f1d7106	0.61500585
76	0x3e93806f	0.28808925
77	0x3ab18f86	0.0013546802
78	0xbd5f8aa8	-0.054575592
79	0x3e4b7af9	0.19871129
80	0x3dab1ce2	0.08355118
81	0xbd698876	-0.057014905
82	0x3e601beb	0.2188565
83	0xbc7f13e1	-0.015568704
84	0xbe9c2dde	-0.30503744
85	0xbedaaed5	-0.4271151
86	0xbe57c5d9	-0.21071567
87	0x3f696eb2	0.9118453
88	0x3daf368e	0.08555327
89	0xbebb0ed4	-0.3653475
90	0xbefd0105	-0.4941484
91	0xbf50d711	-0.81578165
92	0x3f8f0f72	1.1176589
93	0x3f13f9c2	0.57802975
94	0xbb7753dc	-0.0037739193
95	0xbd5266dd	-0.05136763
96	0xbf9f226f	-1.2432383
97	0x3d632b17	0.055461016
98	0x3de0c9b8	0.10975975
99	0x3e11ab18	0.14225423
100	0xbe19ee42	-0.15032294
101	0xbed5c3da	-0.41750985
102	0xbe90727b	-0.28212342
103	0xbdc712eb	-0.09720405
104	0x3dc30380	0.09522152
105	0xbe6ce115	-0.23132737
106	0xbecf425f	-0.40480325
107	0x3e8963b2	0.26833874
108	0x3e699f4e	0.22814676
109	0xbd2933e7	-0.041309264
110	0xbf3cd3ba	-0.7376057
111	0xbf2ca7ac	-0.67443347
112	0x3f746ee6	0.9548172
113	0x3ecbaf06	0.3978197
114	0xbe22fbbc	-0.15916342
115	0xbf0761f6	-0.5288385
116	0xbf87a10c	-1.0596023
117	0x3f5b9c28	0.8578515
118	0x3ef2de15	0.4743506
119	0x3cb823b8	0.02247797
120	0x3e9b80d0	0.30371714
121	0xbf75a1b5	-0.9594987
122	0x3e21aab9	0.15787782
123	0x3e6e1c78	0.23253047
124	0x3e1ec634	0.15505296
125	0xbe2dc4c9	-0.16969599
126	0xbe2f9a64	-0.17148739
127	0xbd9cdc7b	-0.07659241
128	0xbc57d160	-0.0131724775
129	0x3dccce55	0.10000292
130	0xbe81d4bd	-0.2535762
131	0xbe4dcf26	-0.20098552
132	0x3ee251e8	0.44203115
133	0x3ea0eb6a	0.31429607
134	0xbe800cdf	-0.2500982
135	0xbf08189b	-0.53162545
136	0xbe93dc4f	-0.2887902
137	0x3f60f165	0.8786834
138	0x3eb2750d	0.34854928
139	0xbefa8a6a	-0.48933727
140	0xbe8095eb	-0.25114378
141	0xbf61be98	-0.8818145
142	0x3f7e0335	0.99223644
143	0x3ea0940f	0.3136296
144	0xbf0081d5	-0.5019811
145	0x3f564f65	0.83714896
146	0xbf0d055e	-0.55086315
147	0x3ea2c5e5	0.31791607
148	0x3e58bcc9	0.21165766
149	0xbc18e0ff	-0.009330987
150	0xbe74b477	-0.23896967
151	0xbe9aa6be	-0.3020534
152	0xbe6604d0	-0.22462773
153	0xbe0806f4	-0.13283902
154	0xbc347666	-0.0110145565
155	0xbf056c43	-0.5211832
156	0xbead9dad	-0.3390936
157	0xbe0d4aad	-0.13798018
158	0xbe1d479d	-0.1535935
159	0xbeaf5b36	-0.34249276
160	0xbf2bc452	-0.67096436
161	0xbef1836c	-0.4717058
162	0xbe80b514	-0.25138152
163	0xbed79b9d	-0.4211091
164	0xbeb0c842	-0.34527785
165	0xbe750972	-0.23929384
166	0xbf0c0c23	-0.5470602
167	0xbf27a552	-0.65486634
168	0xbf0b4e27	-0.54416126
169	0xbeb74520	-0.35794926
170	0x3ef2d5f2	0.47428852
171	0x3ecf0045	0.40429893
172	0x3def94dd	0.11698315
173	0x3da8ecdb	0.082483016
174	0x3dbe5d36	0.09295122
175	0x3d972189	0.07379443
176	0x3e25f2ee	0.16205952
177	0xbd527f45	-0.051390905
178	0x3d12acda	0.035809375
179	0x3d99442a	0.074837044
180	0x3e081c7e	0.13292119
181	0x3eec774b	0.46184763
182	0x3eb6d21f	0.35707185
183	0x3e8e1cc7	0.2775633
184	0x3e3f1835	0.18661578
185	0xbe778784	-0.24172789
186	0x3ea23c43	0.316866
187	0x3e967713	0.2938772
188	0x3ed34b80	0.4126854
189	0x3eb84b84	0.35995114
190	0xbea7ddb5	-0.32786337
191	0xbe1ff3e8	-0.15620387
192	0xbe7c58ad	-0.24643202
193	0x3d3b889f	0.04578459
194	0xba22b900	-0.0006207377
195	0xbd6e8e48	-0.05824116
196	0xbc12f5a9	-0.008969703
197	0xbd7c1a68	-0.06154862
198	0xbe30f4bf	-0.17280863
199	0xbe807a62	-0.2509337
200	0x3ed5c4b7	0.41751644
201	0x3eb97f61	0.36229995
202	0x3e17d587	0.14827548
203	0xbe818805	-0.25299087
204	0xbebc1c83	-0.36740503
205	0x3edcb7ac	0.4310888
206	0x3f0e1d5e	0.5551356
207	0x3f044148	0.5166211
208	0x3ec1ef2d	0.3787779
209	0xbdc27cf5	-0.0949649
210	0x3df2f2f0	0.11862743
211	0x3ee5387e	0.44769663
212	0x3f0c0ea6	0.5470985
213	0x3f211b17	0.6293196
214	0x3ebef3b7	0.37295315
215	0xbda5fb36	-0.08104555
216	0xbc8166b7	-0.015796049
217	0x3d88d660	0.06681514
218	0x3e0d4219	0.13794746
219	0x3cbc8151	0.023010882
220	0xbda5e9a9	-0.08101208
221	0xbb90670f	-0.004406817
222	0x3ccdb748	0.02511181
223	0x3dcf1abf	0.10112523
224	0xbe077249	-0.1322719
225	0xbe35a13a	-0.17737284
226	0x3d5b4798	0.053535074
227	0x3dcf1985	0.10112289
228	0xbf44b72f	-0.76842016
229	0x3bad8e22	0.0052964846
230	0xbe6970cb	-0.22796933
231	0xbbc89794	-0.006121585
232	0x3ccf5315	0.025308171
233	0xbf5f1d56	-0.8715414
234	0x3edd589a	0.4323166
235	0xbf2f526b	-0.68485135
236	0x3c558ac0	0.013033569
237	0x3e7a9220	0.24469805
238	0xbf354d1f	-0.708208
239	0x3e4c37b7	0.19943129
240	0xbf35959f	-0.7093143
241	0x3e3dd3f6	0.18537888
242	0x3d69940a	0.057025947
243	0xbf63bfb6	-0.889644
244	0xbe5193d5	-0.2046655
245	0x3ee857f9	0.45379618
246	0x3bdbbf3e	0.0067061475
247	0xbeebb168	-0.46033788
248	0x3f091725	0.5355094
249	0x3f18e781	0.59728247
250	0x3db78a4d	0.08961926
251	0x3ec5632b	0.38552222
252	0x3f30a1da	0.68996966
253	0xbea9bfa7	-0.33154032
254	0x3eff8ae2	0.49910647
255	0x3a8e0998	0.0010836599

conv1.bias f4 [6]
0	0xbf3e9e9e	-0.7446078
1	0xbf1015c8	-0.56283236
2	0x3e9438a2	0.28949457
3	0xbcbb7ed9	-0.022887634
4	0xbeaeb07b	-0.3411902
5	0x3dc78113	0.09741416

conv2.weight f4 [16, 6, 5, 5]
0	0xbbcb5ef9	-0.00620639
1	0xbe296f30	-0.16546321
2	0xbd8cf1f0	-0.068820834
3	0x3e01a1bb	0.12659352
4	0x3e956d5d	0.29185
5	0x3caec247	0.021332873
6	0x3d2c0afa	0.042002656
7	0x3c4f5dd7	0.0126566505
8	0xbca217ec	-0.019786797
9	0xbd7065ae	-0.05869072
10	0x3e1ac73e	0.15115067
11	0x3e056508	0.13026822
12	0x3c05db88	0.008170016
13	0x3d52955c	0.05141197
14	0xbe20d28d	-0.15705319
15	0x3df40b7d	0.11916254
16	0x3e7e2b4e	0.24821207
17	0x3e164a01	0.14676668
18	0xbe03d05f	-0.12872456
19	0xbea9ef42	-0.33190352
20	0x3e54ace5	0.20769079
21	0x3e85af37	0.2611024
22	0x3e5f2cef	0.21794485
23	0xbe95c56a	-0.29252177
24	0xbeaab3a7	-0.3334019
25	0xbd497e8a	-0.049192943
26	0xbd10d0b0	-0.03535527
27	0x3e1bea48	0.1522609
28	0xbd6a6b86	-0.05723145
29	0xbe2348a7	-0.15945683
30	0x3cf67b9f	0.030088244
31	0x3e02df59	0.12780513
32	0xbd4bcb72	-0.049754567
33	0xbe777862	-0.24167016
34	0xbde0f61d	-0.109844424
35	0xbc87b8d5	-0.016567627
36	0xbd8b86a1	-0.06812788
37	0xbe83bea6	-0.2573139
38	0xbef4b7d7	-0.4779651
39	0x3e2052fc	0.15656656
40	0xbd03519c	-0.03206025
41	0xbe8b9425	-0.27261463
42	0xbeee5bed	-0.4655451
43	0xbd8ca692	-0.06867708
44	0x3ec48c1f	0.38388154
45	0xbdd613e6	-0.10453014
46	0xbe81f2a4	-0.25380433
47	0xbe16913c	-0.1470384
48	0x3e277e5e	0.16356799
49	0x3dc7a8e7	0.097490124
50	0x3e91716c	0.28406847
51	0x3e3cdd52	0.18443802
52	0x3db57e13	0.088619374
53	0x3e5b0dd3	0.21391992
54	0x3e89da2e	0.2692427
55	0x3e78a1cb	0.24280469
56	0x3e6ad18f	0.22931503
57	0x3e3916d5	0.18075116
58	0xba9977f8	-0.0011708727
59	0xbddbfec6	-0.107419536
60	0xbcbd1263	-0.023080057
61	0x3e35e60a	0.17763534
62	0x3d9e553d	0.07731102
63	0xbe2e54d1	-0.17024542
64	0xbf094709	-0.53624016
65	0x3c8e684c	0.017383717
66	0x3d8f7dc8	0.07006413
67	0x3c719cc3	0.014746848
68	0xbe544188	-0.20728123
69	0xbec8c4d8	-0.3921268
70	0x3de65527	0.1124671
71	0x3cb04b48	0.021520272
72	0xbdb2b28d	-0.08725462
73	0xbe9123c2	-0.28347594
74	0xbd51e223	-0.05124105
75	0xbe191cfc	-0.14952463
76	0x3d6be704	0.05759336
77	0x3de96c0f	0.11397564
78	0xbe2c3287	-0.1681615
79	0xbeb8d951	-0.361033
80	0xbd44c242	-0.04803682
81	0xbda0485f	-0.07826304
82	0xbe22d29d	-0.15900655
83	0xbe58ca4b	-0.21170919
84	0xbe3ecede	-0.18633601
85	0xbcac493d	-0.021031016
86	0xbdbcf257	-0.0922591
87	0x3c5c4e2b	0.013446371
88	0xbdddbc50	-0.108269334
89	0x3e858dd9	0.26084784
90	0xbdf193d0	-0.11795771
91	0xbdee3411	-0.11631025
92	0x3cf5bdbb	0.029997697
93	0x3c2357de	0.00996968
94	0x3ef9bcac	0.48776758
95	0xbd55ec08	-0.05222705
96	0xbe8b4799	-0.27203062
97	0x3e14dcb1	0.14537312
98	0x3bebc7fc	0.007195471
99	0x3ec812dd	0.39076892
100	0xbda4411b	-0.080202304
101	0xbe6f4909	-0.23367704
102	0x3cf22924	0.029560633
103	0x3dd08334	0.10181275
104	0xbe94d031	-0.29065087
105	0xbc10ac3e	-0.008830128
106	0x3d02df34	0.031951144
107	0xbc4f102f	-0.012638136
108	0xbe8c3d41	-0.27390483
109	0x3e0d40ff	0.13794325
110	0xbd9f979d	-0.0779259
111	0xbe44cd43	-0.19218926
112	0xbea466e1	-0.3210974
113	0xbe26cbf3	-0.16288738
114	0x3ef023cc	0.4690231
115	0xbef11fed	-0.4709467
116	0xbe8c2089	-0.27368572
117	0xbd20b5f0	-0.03923601
118	0x3e64bd69	0.22337879
119	0x3eab9c96	0.33517903
120	0x3e34e1fe	0.17664334
121	0x3eda3829	0.42620972
122	0x3e889e7e	0.2668342
123	0x3e08e584	0.13368803
124	0x3df71598	0.120646656
125	0x3d801d77	0.0625562
126	0x3e3a8460	0.1821456
127	0x3e04e7db	0.12979071
128	0x3ec6d9c9	0.38838032
129	0xbe1a4534	-0.15065461
130	0x3e077d78	0.13231456
131	0x3df8edea	0.121547535
132	0x3e52e02c	0.20593327
133	0xbe0c7960	-0.13718176
134	0xbea22064	-0.31665337
135	0x3e1a695a	0.15079251
136	0x3e809c01	0.25119022
137	0x3da497d5	0.08036772
138	0xbedf5916	-0.43622655
139	0xbea2c7f3	-0.31793174
140	0xbe07345a	-0.13203564
141	0xbde4f126	-0.11178808
142	0xbdb43e53	-0.0880095
143	0xbe5ef2cb	-0.21772306
144	0xbd7706df	-0.060309287
145	0xbe74f91e	-0.23923156
146	0xbdff3355	-0.12460963
147	0xbdcb1075	-0.09915248
148	0xbd846bdf	-0.06465887
149	0x3cba7f74	0.022765853
150	0x3ef05bab	0.46944937
151	0x3db0e37a	0.08637138
152	0xbd05bc53	-0.032650303
153	0x3e063cd6	0.13109145
154	0xb98ab93d	-0.00026459424
155	0x3e849f62	0.2590285
156	0x3d8897d0	0.06669581
157	0x3de19c7c	0.11016175
158	0x3e1f0f98	0.15533292
159	0xbdf948d8	-0.12172097
160	0x3f044f07	0.51683086
161	0x3ec62130	0.38697195
162	0x3d2ce3e9	0.04220954
163	0xbe137f0c	-0.14403933
164	0x3d181a4b	0.03713445
165	0x3e1269af	0.14298128
166	0xbca9d7f6	-0.020732861
167	0xbe501d75	-0.20323737
168	0xbe483332	-0.1955078
169	0xbe8d543e	-0.27603334
170	0xbe17e1e4	-0.14832264
171	0xbe9f13b2	-0.31069714
172	0xbe8bd652	-0.2731195
173	0xbe939a30	-0.28828573
174	0xbe941eef	-0.2892985
175	0x3e816078	0.25268912
176	0x3ea8af81	0.329464
177	0xbe3d0b32	-0.18461302
178	0x3e9d98b0	0.30780554
179	0xbe716dd5	-0.23577054
180	0xbda07b62	-0.078360334
181	0xbdc04f8d	-0.09390173
182	0xbdc0a7ea	-0.09407027
183	0x3c11ddc4	0.008902971
184	0xbe347621	-0.17623188
185	0xbee4f20e	-0.44715923
186	0xbdba4705	-0.09095577
187	0xbe7da98f	-0.24771713
188	0xbe98b525	-0.29825702
189	0xbebc209f	-0.36743638
190	0xbe6d0210	-0.23145318
191	0xbecff9df	-0.40620324
192	0xbefd86a6	-0.4951679
193	0xbeadaaf0	-0.33919477
194	0xbeac2a56	-0.3362605
195	0xbecab2f3	-0.39589652
196	0xbed4a6c8	-0.41533494
197	0xbf1a67e2	-0.6031476
198	0xbe2270f5	-0.15863402
199	0xbdca70f7	-0.098848276
200	0x3eb1876d	0.34673634
201	0x3e34bdb3	0.1765049
202	0x3dbd7288	0.09250361
203	0x3c44f37f	0.012020945
204	0xbd4ebcfc	-0.0504732
205	0xbd93473e	-0.07191323
206	0xbe10a874	-0.1412676
207	0xbc0d5e20	-0.008628398
208	0xbc5a5567	-0.013326026
209	0xbc4c5a9d	-0.012472776
210	0xbdb4ee96	-0.08834569
211	0xbc698731	-0.014253424
212	0xbd377ffb	-0.044799786
213	0xbdf2ba80	-0.11851978
214	0xbd2b36ce	-0.041800313
215	0xbdffb061	-0.124848135
216	0xbe0f208e	-0.13977262
217	0xbdca6fc6	-0.098846
218	0xbe48dd5e	-0.19615695
219	0xbe60c2eb	-0.21949355
220	0xbe0f90c6	-0.1402007
221	0xbd9ca691	-0.076489575
222	0xbe82ee82	-0.25572592
223	0xbe3fd74c	-0.18734473
224	0xbe1d8695	-0.1538337
225	0x3dcb6ecf	0.099332444
226	0x3ea0a83f	0.31378362
227	0xbd14a6a9	-0.036291752
228	0x3d62f57c	0.055409893
229	0xbdf6873a	-0.12037511
230	0xbb931bb6	-0.0044893874
231	0x3e8332f3	0.2562481
232	0x3d8f3e2a	0.06994279
233	0x3db8c477	0.09021848
234	0xbe13a8d8	-0.14419878
235	0xbe4425d3	-0.19155054
236	0xbda64d1b	-0.081201755
237	0x3e4d108d	0.20025845
238	0xbd219655	-0.03945001
239	0xbe82cf4e	-0.25548786
240	0x3cb3a7b3	0.021930551
241	0xbc80d24a	-0.015725274
242	0x3981ff0a	0.00024794816
243	0xbd9f3f39	-0.07775731
244	0xbe44ad59	-0.19206752
245	0xbb29350c	-0.0025818972
246	0xbd5e8dd1	-0.054334465
247	0xbdeaa7ce	-0.114577875
248	0xbd826fe2	-0.06368996
249	0xbdfe0424	-0.124031335
250	0x3dfd21f8	0.12359995
251	0xbde326ee	-0.110914096
252	0x3e59f948	0.212865
253	0x3e5b7f0d	0.21435185
254	0x3ea4d321	0.3219233
255	0xbdd8c90e	-0.10585223

conv2.bias f4 [16]
0	0xbf8f19cf	-1.1179751
1	0x3f0a6556	0.54060876
2	0xbe48338c	-0.19550914
3	0x401f915d	2.4932473
4	0xbd4a6535	-0.049412925
5	0x3e562b54	0.20914966
6	0x3e252b7d	0.1612987
7	0x3e6c8116	0.23096117
8	0xbe032979	-0.1280879
9	0x400ed0fe	2.2315059
10	0xbde1f014	-0.110321194
11	0xbf7029be	-0.93813694
12	0xbf04e4ed	-0.51911813
13	0x3ef5cab2	0.48006207
14	0xbf5ba300	-0.85795593
15	0x3d9f0dda	0.07766314

fc1.weight f4 [120, 400]
0	0xbe4829dd	-0.1954722
1	0xbcc79fa7	-0.02436812
2	0xbd10557e	-0.03523778
3	0xbdf58740	-0.119886875
4	0xbb22ced6	-0.0024842522
5	0xbc076a92	-0.008265154
6	0xbcec3a68	-0.028836444
7	0xbda1c7b8	-0.078994215
8	0x3d675e8a	0.056486644
9	0x3d94d9a6	0.07268076
10	0x3cb9a479	0.022661434
11	0xbd0e4597	-0.034734335
12	0x3d94c21f	0.07263588
13	0x3d51edad	0.051252056
14	0xbdead76b	-0.11466869
15	0xbc94808b	-0.0181277
16	0x3bde8b94	0.0067915414
17	0xbd5b975a	-0.053611137
18	0xbde22a9c	-0.11043283
19	0xbe881ff2	-0.26586872
20	0x3d7dc006	0.061950706
21	0xbe29946f	-0.16560529
22	0xbe4c421b	-0.19947092
23	0xbe08efe4	-0.13372761
24	0xbe15c72e	-0.14626762
25	0x3c891532	0.01673374
26	0x3ce88f77	0.028388722
27	0xbcd80722	-0.026370589
28	0x3e0c3042	0.13690284
29	0xbdcc70b2	-0.099824324
30	0x3d2256be	0.039633505
31	0xbc8e4132	-0.017365072
32	0x3dd87674	0.10569468
33	0x3d3d0c01	0.046154026
34	0x3ba305d2	0.004975059
35	0x3de9c7b6	0.11415045
36	0x3e18f5f0	0.14937568
37	0x3e0cd722	0.13753942
38	0x3d004cf2	0.03132338
39	0xbd7b48b9	-0.06134865
40	0xbd15e9b9	-0.03659985
41	0xbd1f5bc5	-0.038905878
42	0xbd0d4624	-0.03449072
43	0x3d38fc35	0.0451624
44	0xba9b0910	-0.0011828262
45	0xbdc91d92	-0.09820093
46	0xbcc39cac	-0.023878418
47	0x3cec4db9	0.028845655
48	0xbd5f1dea	-0.054471888
49	0x3d64a92f	0.05582541
50	0xbd5c27b8	-0.053748816
51	0x3d45210d	0.048127223
52	0x3d2db563	0.042409312
53	0x3c07eaaf	0.008295699
54	0x3cfe10b3	0.031013822
55	0x3d9bc8d4	0.07606664
56	0x3de71a20	0.1128428
57	0xbd23428c	-0.039858386
58	0x3bc05426	0.0058694063
59	0x3dd435d0	0.103618264
60	0x3e1f224a	0.15540424
61	0xbd325595	-0.04353865
62	0x3da822ef	0.08209788
63	0x3d1906ef	0.037360128
64	0xbda47bf3	-0.08031454
65	0x3da8de05	0.08245472
66	0x3dddfd43	0.108393215
67	0x3e3d53d0	0.18489003
68	0x3cd7e89c	0.026356034
69	0xbd822f17	-0.06356638
70	0xbdb03c06	-0.086051986
71	0x3d5505ca	0.052007474
72	0x3dbb9b43	0.09160473
73	0x3c5889e6	0.013216471
74	0x3d97d81f	0.07414269
75	0x3cedf421	0.029047074
76	0x3d58df1e	0.052947156
77	0xbdbed4fa	-0.09317966
78	0x3d9066eb	0.0705088
79	0x3cbd7d2d	0.023130978
80	0x37fbc31c	3.0012387e-05
81	0xbd022110	-0.031769812
82	0xbd0222b0	-0.03177136
83	0xbd4a218f	-0.04934841
84	0xbdccf29e	-0.10007213
85	0x3ddd3295	0.108006634
86	0xbdbdda94	-0.09270206
87	0xbcf0dc92	-0.029402051
88	0xbdb69f13	-0.0891706
89	0xbd87f745	-0.0663896
90	0x3b97c661	0.004631803
91	0xbe116398	-0.14198148
92	0xbdc687aa	-0.096938446
93	0xbddf6433	-0.10907783
94	0xbd407b59	-0.046992633
95	0xbd65f6e9	-0.056143675
96	0xbe724ba9	-0.23661675
97	0xbdc0f6a4	-0.09422043
98	0xbdb8d3e5	-0.09024791
99	0x3dce0d49	0.10061128
100	0x3cebc707	0.028781427
101	0x3adcc4b7	0.0016843294
102	0xbc384291	-0.011246339
103	0x3e13155c	0.14363617
104	0x3df2202e	0.11822544
105	0x3db8e170	0.09027374
106	0x3dae65cb	0.08515509
107	0x3d3db0ce	0.046311192
108	0x3e4ca0db	0.19983236
109	0x3d83c460	0.0643394
110	0xbcee1499	-0.029062556
111	0xbc24a738	-0.010049634
112	0xbc3be930	-0.01146917
113	0x3de212e9	0.11038763
114	0x3cc1b167	0.023644162
115	0xbdb4ccc9	-0.08828122
116	0xbd24047c	-0.04004334
117	0xbc0aee7a	-0.008479709
118	0xbe04f0a4	-0.12982422
119	0xbdea41ed	-0.114383556
120	0xbe3a0fc9	-0.18170084
121	0xbdfb86b5	-0.12281553
122	0xbba6b07c	-0.0050869565
123	0xbdab3df8	-0.08361429
124	0xbdf372c9	-0.11887128
125	0xbc135230	-0.008991763
126	0x3d579dd9	0.05264077
127	0x3bcb6eb7	0.0062082666
128	0x3d8d971e	0.06913589
129	0x3d9d2721	0.07673479
130	0x3d1da520	0.038487554
131	0x3dac3b7b	0.084097825
132	0xbca7e07c	-0.020492785
133	0x3d6f2dcf	0.058393296
134	0x3ddb0ffe	0.1069641
135	0x3d89f68b	0.067364775
136	0x3d4fb40b	0.05070881
137	0xbd069d75	-0.032865006
138	0x3de65c85	0.112481155
139	0x3bbe1938	0.005801346
140	0x3db03dee	0.08605562
141	0xbc475431	-0.012166069
142	0xbdaf65d2	-0.085643426
143	0x3d49bf1b	0.049254518
144	0x3d799581	0.060933594
145	0xbd361a02	-0.044458397
146	0xbd56bb20	-0.05242455
147	0xbe2b0197	-0.16699825
148	0x3db7ed14	0.08980766
149	0xbca6ebea	-0.020376164
150	0x3cd4c70a	0.025973815
151	0xbd619dd9	-0.055082176
152	0x3cf3b06f	0.029747216
153	0x3ddadba8	0.10686427
154	0xbc963c06	-0.018339168
155	0x3c885ea7	0.016646696
156	0x3c21557d	0.009847042
157	0x3d0e796b	0.034783762
158	0xbd85f686	-0.06541161
159	0xbdd8b43f	-0.10581254
160	0x3d79480e	0.060859732
161	0x3d5a539a	0.053302385
162	0x3d0bf833	0.034172248
163	0xbd41187f	-0.047142502
164	0xbd69a95d	-0.057046283
165	0x3d5ec433	0.05438633
166	0x3d7d53c4	0.061847463
167	0x3dd6a7a4	0.10481194
168	0xbcfec527	-0.031099869
169	0xbccf63e7	-0.025316192
170	0xbe021b7c	-0.12705797
171	0x3e0ac1f4	0.1355055
172	0x3db15d66	0.086603925
173	0x3cd1eb50	0.025624901
174	0xbd9f9186	-0.07791428
175	0x3d27bf4e	0.040953927
176	0x3d8eff22	0.069822565
177	0xbd2b03b4	-0.04175158
178	0xbd8677ff	-0.06565856
179	0xbd06deb6	-0.032927237
180	0xbd207f41	-0.03918386
181	0x3dbdfe35	0.09277002
182	0x3d658206	0.056032203
183	0x3cb8d21a	0.022561122
184	0x3de5a56e	0.11213194
185	0xbd0cd610	-0.034383833
186	0xbe066a98	-0.131266
187	0xbcdde9a5	-0.02708895
188	0xbdb8b82d	-0.09019504
189	0x3c57f126	0.013180053
190	0xbdd9efac	-0.10641417
191	0xbe4056d2	-0.1878312
192	0x3cfe6745	0.031055102
193	0x3dd7b07f	0.10531711
194	0x3ddeaf0d	0.10873232
195	0x3da3910b	0.07986649
196	0x3cb62f87	0.02223946
197	0x3e298ce2	0.16557649
198	0x3e1ff6cd	0.15621491
199	0x3d9e50e6	0.07730274
200	0x3d729f09	0.0592337
201	0xbc5df869	-0.013547995
202	0xbb2a9334	-0.0026027681
203	0xbd229091	-0.03968865
204	0xbcb6238f	-0.022233753
205	0xbb3f2c69	-0.0029170758
206	0xbdf71fea	-0.12066634
207	0x3dd22c50	0.10262358
208	0x3d02de74	0.03195043
209	0xbcc915ab	-0.024546465
210	0x3dcca107	0.09991651
211	0xbe271f3c	-0.16320509
212	0xbde08768	-0.10963327
213	0xbd8fb496	-0.07016866
214	0xbdab1340	-0.08353281
215	0xbdd14224	-0.102176934
216	0xbe5b3833	-0.21408157
217	0xbde0106a	-0.10940631
218	0xbd0a0620	-0.033697248
219	0xbb97d814	-0.004633913
220	0x3dadb390	0.084815145
221	0xbdb7d317	-0.08975809
222	0xbe397b6c	-0.18113488
223	0xbd5c1e57	-0.05373987
224	0xbd943ac2	-0.0723777
225	0xbd116e29	-0.035505448
226	0x3d4893ab	0.048968952
227	0xbbd96fdf	-0.0066356505
228	0xbb84b3cc	-0.004049754
229	0x3c759013	0.014987963
230	0x3b90d5ce	0.0044200188
231	0xbce34f2f	-0.027747719
232	0x3a41c169	0.0007391186
233	0xbe270c19	-0.16313209
234	0xbe1420ac	-0.14465588
235	0xbd7d973f	-0.061911818
236	0xbdbf5c23	-0.093437456
237	0xbde456c8	-0.11149365
238	0xbc93f89c	-0.018062882
239	0x3b973c8b	0.0046153716
240	0xbd677ecb	-0.056517404
241	0xbd06af9d	-0.03288232
242	0x3d029c56	0.031887375
243	0x3d632b2c	0.055461094
244	0xbddb530a	-0.10709198
245	0x3ddad866	0.10685806
246	0x3d8dfa63	0.06932523
247	0x3db21701	0.08695794
248	0x3c210028	0.009826697
249	0x3d2445fb	0.0401058
250	0xbd499200	-0.049211502
251	0xbbb7a9c1	-0.005604953
252	0xbb1559ca	-0.0022789114
253	0xbcab2f4f	-0.020896582
254	0x3d1dea48	0.038553506
255	0xbc4b7e69	-0.012420275

fc1.bias f4 [120]
0	0xbcf85270	-0.030312747
1	0xbb468427	-0.0030291171
2	0xbd39d9f0	-0.045373857
3	0x3eab1595	0.33414903
4	0x3e3322f0	0.17493796
5	0xbdc22057	-0.094788246
6	0xbd70e459	-0.05881152
7	0xbd804603	-0.06263354
8	0x3e80c150	0.25147486
9	0xbd9b882a	-0.075943306
10	0x3edcf168	0.43152928
11	0x3d511e22	0.051054128
12	0x3c38040a	0.011231432
13	0xbc2956c0	-0.010335624
14	0xbd2d0fac	-0.042251274
15	0xbd9e3946	-0.07725768
16	0xbd1f7727	-0.038931992
17	0x3e1d1c91	0.15342928
18	0xbbd1222b	-0.006382247
19	0x3e6276f0	0.22115684
20	0x3d908d14	0.070581585
21	0xbc5d0af9	-0.013491386
22	0x3cb252b5	0.021767953
23	0x3d5cdd38	0.05392191
24	0x3dcaebb7	0.0990824
25	0xbe86ee58	-0.26353717
26	0x3e56007b	0.20898621
27	0x3eb0365d	0.34416476
28	0x3cce7fff	0.025207518
29	0xbbd5fe6c	-0.0065305736
30	0xbd6c5bc0	-0.057704687
31	0x3ce58fda	0.028022695
32	0x3e59c9fd	0.21268459
33	0x3dce84b1	0.100839026
34	0x3e701d66	0.23448715
35	0xbb350213	-0.0027619645
36	0xbd21b410	-0.03947836
37	0x3e2f7801	0.17135622
38	0xbe2dc5a2	-0.16969922
39	0x3de27fc7	0.11059528
40	0xbd4941c7	-0.049134996
41	0x3e20b7cf	0.15695117
42	0x3d413ba8	0.047176033
43	0x3daee778	0.08540243
44	0xbe21d2da	-0.1580309
45	0xbde7ef71	-0.11324967
46	0x3d2ac631	0.041692916
47	0x3de7f00d	0.11325083
48	0xbd8355cb	-0.06412848
49	0x3e086867	0.13321076
50	0xbddd4383	-0.108038925
51	0xbd29dd8f	-0.04147106
52	0xbe1b649d	-0.151751
53	0x3dc1c53d	0.09461448
54	0xbd1eeaa0	-0.038797975
55	0xbdd09496	-0.101845905
56	0x3be5498a	0.006997292
57	0x3e01766b	0.12642829
58	0x3de37f46	0.1110826
59	0x3e169239	0.14704217
60	0xbdbe6591	-0.09296716
61	0x3e1bb313	0.1520503
62	0x3e3a52ae	0.18195602
63	0x3e5c1544	0.21492487
64	0x3d95ab62	0.07308079
65	0x3e8e2a4e	0.2776665
66	0x3d90783d	0.07054184
67	0x3ce8c442	0.028413896
68	0x3e34ce0c	0.17656726
69	0xbc04755c	-0.008084621
70	0xbd22f41f	-0.039783593
71	0x3e402989	0.18765844
72	0x3ddc50d4	0.10757604
73	0xbe275c8e	-0.163439
74	0x3e542c38	0.20719993
75	0x3e2e4f22	0.17022374
76	0xbabfc1c7	-0.0014629894
77	0xbd8a9a41	-0.06767703
78	0x3e7aff57	0.24511467
79	0x3e12eda3	0.14348464
80	0xbc88e527	-0.01671083
81	0x3dc8ac40	0.09798479
82	0xbbd0cb5a	-0.0063718976
83	0x3e83fa1f	0.25776765
84	0x3d815fb9	0.06317086
85	0x3df3d79b	0.11906358
86	0x3d6ecd49	0.058301244
87	0x3cb34b8e	0.021886613
88	0x3e941be2	0.28927523
89	0xbcf47b9d	-0.0298441
90	0x3cfa3476	0.030542593
91	0xbe9d9276	-0.30775803
92	0x3d52b90f	0.051446017
93	0x3ce0fed9	0.02746527
94	0xbe1ba072	-0.15197924
95	0x3dbf0761	0.09327579
96	0x3e05d220	0.13068438
97	0x3d59a589	0.053136382
98	0xbe8d3042	-0.2757588
99	0xbd3e4a2e	-0.046457462
100	0x3e2d8256	0.1694425
101	0x3cdf51c2	0.027260665
102	0xbdbe5c39	-0.09294934
103	0xbd1880f4	-0.037232354
104	0xbdefd114	-0.117098
105	0xbec37a0d	-0.38179055
106	0x3e4797e1	0.19491531
107	0x3caef756	0.021358173
108	0xbe99402e	-0.29931778
109	0xbe7bc308	-0.24586117
110	0xbd5141aa	-0.051088013
111	0xbdffbd7c	-0.12487313
112	0xbe821355	-0.25405374
113	0x3e0078f0	0.12546134
114	0xbcd9718e	-0.026543405
115	0x3e712ead	0.23552962
116	0x3ec7fb8d	0.39059106
117	0xbdc7cdcd	-0.0975605
118	0x3e741d3b	0.23839276
119	0xbda690d9	-0.08133096

fc2.weight f4 [84, 120]
0	0xbd31d343	-0.043414366
1	0x3e03b206	0.1286088
2	0xbd4f5d21	-0.050625924
3	0x3dc90d38	0.098169744
4	0xba839f9e	-0.0010042076
5	0xbdef3887	-0.116807036
6	0x3c955f96	0.018234055
7	0x3dc7da63	0.09758451
8	0x3cb1d5cf	0.021708397
9	0xbb90a675	-0.0044143745
10	0xbe8b28db	-0.27179608
11	0xbd0dc8a7	-0.034615185
12	0x3e1456cc	0.14486235
13	0x3d4f5eaa	0.050627388
14	0xbda92d62	-0.08260609
15	0x3cebb9a3	0.028775042
16	0x3e1c9496	0.15291056
17	0xbe064196	-0.13110957
18	0xbd3e2026	-0.046417378
19	0xbec43dec	-0.38328493
20	0x3dec880b	0.11549386
21	0xbd27d6f3	-0.040976476
22	0x3e2c73e4	0.16841084
23	0xbe2dc2a4	-0.16968781
24	0xbca475d4	-0.020075716
25	0x3dedc0cd	0.116090395
26	0xbb464e21	-0.003025897
27	0x3deb39ec	0.11485657
28	0xbd77bf69	-0.060485277
29	0xbd1fc6db	-0.039008003
30	0xbe140234	-0.14453965
31	0xbe1a65ef	-0.15077947
32	0x3e3cf970	0.18454528
33	0xbdb66eb5	-0.089078344
34	0x3a801aa4	0.0009773565
35	0x3e4cafd2	0.19988945
36	0xbe6c1d8e	-0.23058149
37	0xbe0a858d	-0.13527508
38	0xbd96d8fc	-0.07365605
39	0x3de2d62d	0.11076007
40	0xbe061f52	-0.13097885
41	0x3d94cb7e	0.072653756
42	0xbdca60ae	-0.098817214
43	0xbe2e84b7	-0.17042814
44	0xbe19374b	-0.14962499
45	0xbdcc425d	-0.09973595
46	0xbb552e43	-0.0032528795
47	0x3e1fae2a	0.15593782
48	0xbdf857bd	-0.1212611
49	0xbdcc1a43	-0.099659465
50	0xbe8467b8	-0.2586038
51	0xbd89a691	-0.06721223
52	0x3d4c9227	0.04994407
53	0xbe91f00a	-0.28503448
54	0xbd086d62	-0.03330744
55	0xbdc0615b	-0.09393569
56	0x3bed1724	0.0072354246
57	0x3dceebdd	0.10103581
58	0xbc38acec	-0.011271697
59	0x3d6e0f6c	0.058120176
60	0xbd9b4342	-0.07581188
61	0xbdf0bbd1	-0.11754573
62	0x3e299825	0.16561945
63	0xbb9d4b1a	-0.0048002126
64	0x3d3672e2	0.044543155
65	0xbd90cc68	-0.070702374
66	0xbe2e21b1	-0.1700504
67	0xbd89911e	-0.06717132
68	0x3dc08cde	0.09401868
69	0xbe325372	-0.17414644
70	0xbe2cd17c	-0.16876787
71	0xbcafd7eb	-0.021465262
72	0x3d103b9f	0.03521311
73	0xbdd1b8d5	-0.10240332
74	0xbd3d41b1	-0.046205226
75	0xbdf71bdd	-0.120658614
76	0xbd841055	-0.064484276
77	0xbd0f8617	-0.035039987
78	0x3d612d8a	0.05497507
79	0x3e45d1c6	0.19318303
80	0xbda2a0e0	-0.07940841
81	0xbda2d5c0	-0.07950926
82	0xbcf9c84d	-0.030491019
83	0xbddb8500	-0.10718727
84	0x3e0085e2	0.12551072
85	0xbd5584ec	-0.052128717
86	0x3d0ca03a	0.03433249
87	0x3d8ddd94	0.06927028
88	0x3d0a9720	0.03383553
89	0xbe02325b	-0.12714522
90	0xbcbe7f06	-0.023253929
91	0x3d0a1e00	0.033720016
92	0x3c93c353	0.018037474
93	0xbb21bf16	-0.0024680546
94	0xbd3b5ad3	-0.045740914
95	0xbba81c1e	-0.005130305
96	0xbddd322f	-0.108005874
97	0xbdcb4675	-0.09925548
98	0x3d2a90c5	0.04164197
99	0xbe29022f	-0.16504739
100	0xbe360385	-0.1777478
101	0x3dbf2420	0.09333062
102	0x3df33eb2	0.118771926
103	0xbe0f8f14	-0.14019424
104	0x3a7ffb84	0.0009764957
105	0xbdddbaac	-0.108266205
106	0x3d1e0dba	0.03858731
107	0xbe09dda1	-0.13463451
108	0xbddd670b	-0.108106695
109	0x3d4608c0	0.04834819
110	0x3c002a74	0.007822622
111	0x3d82a3cf	0.063789
112	0xbe0a399f	-0.13498543
113	0xbdc57015	-0.096405186
114	0xbd9e4cc8	-0.077294886
115	0x3e04bd2e	0.12962791
116	0xbb917a62	-0.004439638
117	0x3d5ebefb	0.054381352
118	0xbb9936ff	-0.0046757455
119	0x3d33a8c3	0.043862116
120	0xbc1852a5	-0.009297048
121	0xbe09334b	-0.13398473
122	0xbd6fed01	-0.058575634
123	0xbd71c50e	-0.059025817
124	0xbd8bf78b	-0.068343244
125	0xbde68310	-0.11255467
126	0xbe341a6e	-0.17588207
127	0xbc3d27d3	-0.011545139
128	0xbde25b7a	-0.11052604
129	0x3dbe3a5e	0.092884764
130	0xbb1fc6eb	-0.002438004
131	0xbe1f774b	-0.1557285
132	0x3e3adf3e	0.18249223
133	0xbe222a5c	-0.15836471
134	0x3e03aa4e	0.12857935
135	0xbca96793	-0.02067927
136	0x3e51384f	0.20431636
137	0x3e524b2e	0.20536491
138	0xbd53448d	-0.051579047
139	0xbe047368	-0.12934649
140	0xbe41cde0	-0.18926191
141	0x3d1b5280	0.037920475
142	0x3e4e2fb9	0.20135392
143	0xbdfb66e8	-0.12275487
144	0x3e2a987a	0.16659728
145	0xbd4b8135	-0.04968377
146	0x3dd1ffe1	0.10253883
147	0xbd8079ef	-0.06273257
148	0xbdb1621f	-0.08661293
149	0xbc449b2b	-0.011999886
150	0xbc222c3a	-0.00989824
151	0xbd4dbcda	-0.05022893
152	0x3cd3e25e	0.025864776
153	0xbca0f93a	-0.01965009
154	0x3cba38d3	0.022732174
155	0xbca76026	-0.02043159
156	0xbdfae3e5	-0.12250499
157	0xbe20edb7	-0.15715681
158	0xbdfcf373	-0.12351122
159	0x3d8669b9	0.06563134
160	0x3e21c703	0.15798573
161	0xbdf34096	-0.11877553
162	0xbe4fe514	-0.2030223
163	0xbde96823	-0.11396816
164	0xbd20f187	-0.03929284
165	0x3b2a77c2	0.0026011323
166	0xbcb56864	-0.022144504
167	0x3dc5636b	0.09638103
168	0xbdbdb73e	-0.09263466
169	0x3d075c45	0.03304698
170	0xbe2d6bb7	-0.16935621
171	0xbe1a533d	-0.15070815
172	0x3e1afd28	0.15135634
173	0xbd9211bc	-0.07132289
174	0xbd57f0c8	-0.05271986
175	0xbe57bbbc	-0.21067709
176	0x3b9e05fd	0.004822491
177	0x3e4b7222	0.19867757
178	0x3e6bce63	0.23027949
179	0xbd9d1026	-0.07669096
180	0xbc196ec8	-0.009364791
181	0xbe07955e	-0.13240573
182	0x3e0172cc	0.12641448
183	0xbbf1bf01	-0.007377506
184	0xbdb0d677	-0.08634656
185	0x3d36d97c	0.044641003
186	0xbd441b89	-0.047877822
187	0xbcdd585c	-0.027019672
188	0xbd8d89ee	-0.069110736
189	0x3c3eba27	0.011641062
190	0xbddd92b0	-0.10818994
191	0x3c811104	0.015755184
192	0x3e27e435	0.16395648
193	0xbc99e21d	-0.018784577
194	0xbce46e9d	-0.027884776
195	0xbd98e790	-0.07466042
196	0xbd81e867	-0.06343155
197	0xbd4e4704	-0.050360695
198	0x3d852c1e	0.06502555
199	0x3eb87d5e	0.36033148
200	0xbd66b596	-0.056325518
201	0xbe457a59	-0.19284953
202	0xbde498e8	-0.11161977
203	0xbddf6e84	-0.10909751
204	0xbe76daff	-0.24106978
205	0xbda21abe	-0.07915257
206	0x3d98d9f5	0.07463447
207	0xbe6e1d7c	-0.23253435
208	0xbd1e468e	-0.038641505
209	0x3d2439dd	0.040094245
210	0x3cbd1d43	0.023085242
211	0xbd2d4f58	-0.042311996
212	0xbca25bd6	-0.019819181
213	0x3ddba3b3	0.107245825
214	0xbe1db434	-0.15400773
215	0xbc97ab55	-0.018514315
216	0xbc031bcb	-0.008002232
217	0xbd75cbcb	-0.060008805
218	0x3cdf2d1b	0.027243188
219	0xbdd0acf9	-0.10189242
220	0xbdbbe0a8	-0.09173709
221	0x3d07730e	0.03306871
222	0x3bf5c4e0	0.007500276
223	0xbd4eab61	-0.05045641
224	0xbbe7a6ec	-0.007069459
225	0xbd7cfc21	-0.061763886
226	0xbd83eed4	-0.06442037
227	0xbdcb8f4c	-0.09939441
228	0xbce7dcf7	-0.028303606
229	0xbd665956	-0.05623754
230	0xbd97293f	-0.07380914
231	0xbd5b3333	-0.053515624
232	0xbd67a96f	-0.05655807
233	0xbd3ce254	-0.04611428
234	0x3ddf9a85	0.10918144
235	0x3e0357d6	0.12826476
236	0x3e459618	0.19295537
237	0x3dfeaaba	0.12434907
238	0x3d871250	0.0659529
239	0x3cf39e4c	0.029738568
240	0xbcbd6efd	-0.023124212
241	0xbdbe4cd4	-0.092919976
242	0x3d2c8439	0.042118285
243	0xbdbe1d85	-0.09282974
244	0xbc21d9c2	-0.009878578
245	0xbe398dd9	-0.18120517
246	0x3d946abd	0.07246921
247	0x3d380bbb	0.044933062
248	0x3c2686a6	0.010163939
249	0x3e530559	0.20607509
250	0xbe2fffd8	-0.1718744
251	0xbdb86817	-0.090042286
252	0x3e534a21	0.20633747
253	0x3d420951	0.047372166
254	0x3d8297bf	0.063765995
255	0xbcb0ff41	-0.02160609

fc2.bias f4 [84]
0	0x3f3563d4	0.7085545
1	0x3eaa4b0d	0.33260384
2	0x3e574e40	0.21025944
3	0x3efa32ac	0.48866785
4	0x3d5f2e44	0.05448748
5	0xbd800bd7	-0.06252258
6	0x3d6a8643	0.05725695
7	0x3d06dfb2	0.032928176
8	0xbd6d0806	-0.05786898
9	0x3d890bd6	0.06691711
10	0xbdd6bd41	-0.10485316
11	0x3ebb5bf8	0.36593604
12	0x3df41604	0.11918262
13	0xbdb0a6f5	-0.086255945
14	0x3de57be1	0.11205269
15	0xbd96a5e7	-0.07355862
16	0x3e73641c	0.23768657
17	0x3dbb6ca5	0.09151582
18	0x3d855796	0.06510846
19	0x3d36813b	0.044556838
20	0x3d420704	0.047369972
21	0xbd96ad90	-0.07357323
22	0xbda4eac4	-0.080525905
23	0xbd8f9cf1	-0.07012356
24	0x3ed95ee0	0.42455196
25	0x3ebe0df1	0.3712001
26	0xbc9d87e1	-0.019229831
27	0x3c1034f8	0.008801691
28	0x3f6f4858	0.9346976
29	0xbd2a9552	-0.04164631
30	0xbe0cf121	-0.13763858
31	0x3b9563d0	0.0045590177
32	0x3da9183a	0.08256574
33	0x3e4d0bfa	0.200241
34	0x3f46c079	0.7763744
35	0xbe26f086	-0.1630269
36	0x3e4e216d	0.20129938
37	0x3ec25157	0.37952682
38	0xbd8aa40c	-0.06769571
39	0x3e73a629	0.23793854
40	0xbd4d24c7	-0.0500839
41	0x3e6a5f3c	0.22887892
42	0x3cbd5822	0.023113314
43	0x3ec3680d	0.38165322
44	0x3cfb17ae	0.03065094
45	0xbe00bcf9	-0.12572087
46	0xbd43db81	-0.047816757
47	0x3deef22b	0.116672836
48	0xbd5f2555	-0.054478962
49	0x3f0375b5	0.5135148
50	0x3edb827b	0.42872986
51	0xbdd930dd	-0.10605023
52	0x3e9e958a	0.30973464
53	0x3dac0985	0.08400253
54	0x3e9d61ac	0.3073858
55	0x3d83b1e4	0.06430414
56	0x3f148dac	0.58028674
57	0x3e04ec2d	0.12980719
58	0x3c288090	0.010284558
59	0x3c3f94e0	0.011693209
60	0x3ef693c2	0.48159605
61	0x3e2191c3	0.1577826
62	0xbdcffa3e	-0.10155152
63	0xbc731a2b	-0.014837782
64	0x3e925e94	0.28587782
65	0x3df9cdc6	0.12197451
66	0x3e9cd02f	0.3062758
67	0x3dc4b8a5	0.09605531
68	0x3ea2edcc	0.3182205
69	0x3e3b5556	0.18294272
70	0x3f1f327e	0.6218642
71	0x3d6942be	0.056948416
72	0xbda09b9e	-0.078421816
73	0x3f597357	0.8494162
74	0xbd244092	-0.04010064
75	0x3e603852	0.21896484
76	0x3e85fa6d	0.26167622
77	0xbde88bf9	-0.11354823
78	0x3f3b495a	0.731588
79	0x3f11b65d	0.5691889
80	0x3edf530a	0.4361804
81	0x3d5f97b6	0.054588042
82	0x3e6f10b2	0.23346213
83	0x3d29d0ea	0.041459

fc3.weight f4 [10, 84]
0	0xbf0286f0	-0.5098715
1	0xbe0e6928	-0.13907301
2	0xbc330dba	-0.010928566
3	0xbc99ff9f	-0.018798647
4	0x3e377d9e	0.17919013
5	0x3e163ed2	0.14672402
6	0xbd97f9c7	-0.07420688
7	0xbd713dce	-0.058896832
8	0xbe3b4675	-0.18288596
9	0x3eac6f2b	0.33678564
10	0xbdff7499	-0.12473411
11	0xbe445ac4	-0.1917525
12	0xbd61bc26	-0.055111073
13	0xbd1db56d	-0.0385031
14	0x3df04e06	0.11733632
15	0xbdfd2223	-0.12360027
16	0xbc9a292e	-0.018818464
17	0xbe2bde6c	-0.16784066
18	0x3dd43cc4	0.103631526
19	0x3e415b86	0.1888257
20	0x3e47d09e	0.19513175
21	0x3e254ded	0.16143008
22	0x3e0820cf	0.13293765
23	0x3d6c82f1	0.057742063
24	0xbd8eda2a	-0.06975205
25	0xbe81b852	-0.25335938
26	0x3d726577	0.059178796
27	0x3da185fb	0.07886883
28	0xbe8e3599	-0.27775267
29	0xbc86937e	-0.016427752
30	0x3e7d0e6b	0.24712531
31	0x3e1b9137	0.15192114
32	0xbd6b861f	-0.057500955
33	0x3d85ba42	0.065296665
34	0xbdf81b74	-0.12114611
35	0x3e6a1a1b	0.22861521
36	0x3ddfde49	0.109310694
37	0x3da034b3	0.078225516
38	0xbd91d463	-0.07120588
39	0xbcff7698	-0.03118448
40	0x3c150c36	0.00909715
41	0xbe66de68	-0.22545779
42	0x3dbd9dbd	0.09258602
43	0xbdb13e1d	-0.08654425
44	0x3e1ad25f	0.15119313
45	0xbdab47a4	-0.08363274
46	0x3caec9e1	0.021336498
47	0x3e056423	0.1302648
48	0xbc8e3f06	-0.017364036
49	0x3dd32bc8	0.10311085
50	0x3c228f39	0.009921842
51	0xbdb83ccb	-0.0899597
52	0x3eb50127	0.35352442
53	0x3de72f91	0.112883694
54	0x3e128336	0.14307866
55	0xb9de9cb8	-0.00042459904
56	0xbe196f05	-0.14983757
57	0xbd4d5849	-0.050133023
58	0xbd1d0580	-0.038335323
59	0x3d201eaa	0.039091744
60	0x3dba5e78	0.0910005
61	0xbbb825c8	-0.0056197383
62	0x3c8784ab	0.016542753
63	0x3d1d74a7	0.038441326
64	0xbe7f24b9	-0.24916352
65	0x3e76efbc	0.24114889
66	0x3e4b11b1	0.19830967
67	0xbea059f8	-0.3131864
68	0xbd80536b	-0.06265911
69	0x3da4d349	0.08048112
70	0x3e85d6b0	0.26140356
71	0x3d8ac9ef	0.06776797
72	0xbe4fba9b	-0.20286028
73	0xbd854dda	-0.0650899
74	0xbde720f6	-0.11285584
75	0xbd9576de	-0.07298063
76	0xbd5ca5da	-0.053869106
77	0x3e129e93	0.14318304
78	0x3e656ef0	0.224056
79	0x3e23d6c7	0.159999
80	0xbe3b0c33	-0.18266372
81	0xbc830a8b	-0.015996238
82	0x3d364538	0.044499606
83	0xbd4e6c80	-0.050396442
84	0xbed9c06f	-0.42529628
85	0xbc63b611	-0.0138983885
86	0xbe0b2c86	-0.13591203
87	0xbe61c783	-0.22048764
88	0xbd4d8c18	-0.050182432
89	0x3de17997	0.110095195
90	0x3cb09e78	0.021559939
91	0x3e218c65	0.15776213
92	0x3dcc795d	0.09984086
93	0x3e84e36e	0.25954765
94	0x3e09d195	0.13458855
95	0x3da66d2a	0.0812629
96	0x3d14544f	0.036213215
97	0xbcc86d5e	-0.024466213
98	0x3e79d3e2	0.24397233
99	0xbd8b77d2	-0.06809963
100	0xbe17fcf1	-0.14842583
101	0x3e666f2a	0.22503343
102	0x3d83b765	0.06431464
103	0xbdd017ae	-0.101607665
104	0xbe6dd2a7	-0.23224889
105	0x3e7c750c	0.24654025
106	0x3d540b7b	0.05176876
107	0xbcaa5c4a	-0.02079596
108	0xbe3f6de8	-0.1869427
109	0xbe07fcec	-0.13280076
110	0x3d16cf64	0.036818877
111	0x3e3dd796	0.18539271
112	0xbe4f0cc3	-0.20219712
113	0xbda0f9bb	-0.07860132
114	0xbdf4dec6	-0.11956553
115	0x3e801870	0.25018644
116	0x3d8a8469	0.067635365
117	0x3e917b79	0.28414515
118	0xbeba4b93	-0.36385784
119	0xbda34ee5	-0.07974032
120	0xbe06fd72	-0.13182619
121	0xbe638ea1	-0.22222377
122	0xbe50fb38	-0.20408332
123	0xbc8e39c5	-0.017361531
124	0xbc71ccc6	-0.014758294
125	0x3c7b1c64	0.015326593
126	0xbd349372	-0.044085927
127	0xbeb10228	-0.34571958
128	0xbd10cb31	-0.03535003
129	0x3e694b52	0.22782639
130	0x3dfe202d	0.12408481
131	0xbd3681b6	-0.044557296
132	0x3e0cb40c	0.13740557
133	0xbe974fc7	-0.29553053
134	0xbe7dd3b4	-0.2478779
135	0x3e7a4e4c	0.2444393
136	0x3eaf1f65	0.3420364
137	0xbd753e24	-0.059873715
138	0xbeb5f906	-0.35541552
139	0xbd8df26a	-0.069310024
140	0xbd3ac268	-0.045595556
141	0x3d24fff7	0.04028317
142	0xbd5b9490	-0.053608477
143	0x3cace20a	0.021103878
144	0x3d484dc9	0.048902307
145	0xbca3ba35	-0.019986251
146	0xbe042e4a	-0.12908283
147	0x3e1d8ea0	0.15386438
148	0x3c9f9e29	0.019484596
149	0xbcbdb845	-0.023159156
150	0xbc4285e6	-0.011872744
151	0xbd0401a4	-0.032228127
152	0xbdc83e71	-0.09777535
153	0x3e8ceca3	0.2752429
154	0x3e588b63	0.21146922
155	0x3db35557	0.08756512
156	0xbd501dd7	-0.050809707
157	0xbe661fec	-0.22473115
158	0x3d756eb3	0.059920024
159	0xbdaa9375	-0.083289064
160	0x3c074b2c	0.008257668
161	0x3ea596b3	0.32341537
162	0xbe088fff	-0.1333618
163	0xbe83119e	-0.25599378
164	0x3de9dde8	0.114192784
165	0x3e8639e1	0.26216033
166	0xbd91990a	-0.07109268
167	0xbe765c9a	-0.24058762
168	0x3de14765	0.109999456
169	0xbe0bf982	-0.13669398
170	0x3e347abe	0.17624947
171	0x3dc02b5b	0.093832694
172	0xbd4cbcf9	-0.049984906
173	0xbe11ce43	-0.14238839
174	0x3e4f6d04	0.2025643
175	0xbe1a2170	-0.15051818
176	0xbe164bc9	-0.14677347
177	0x3e083139	0.13300027
178	0x3d32a875	0.043617684
179	0xbe4847cf	-0.19558643
180	0xbe5b64f1	-0.21425225
181	0x3d75430d	0.059878398
182	0xbc9064b9	-0.017626153
183	0xbde3cfbe	-0.11123608
184	0x3e62402e	0.22094795
185	0xbdb0e100	-0.08636665
186	0xbd42369c	-0.04741536
187	0xbe11d24f	-0.14240383
188	0x3e215b48	0.15757477
189	0xbdaf982b	-0.085739456
190	0xbd071ae1	-0.032984618
191	0xbd85a3bc	-0.065253705
192	0x3e8ea522	0.2786036
193	0x3db768d2	0.0895554
194	0x3e00fa2b	0.12595432
195	0x3dc6e4bb	0.097115956
196	0x3e738f12	0.23785046
197	0xbd28e13c	-0.041230425
198	0x3e6d392e	0.23166344
199	0x3c2e3a4f	0.010634019
200	0xbe0a5048	-0.13507187
201	0xbe51ba46	-0.20481214
202	0x3e180b75	0.1484812
203	0x3d88936d	0.06668744
204	0x3dfecf61	0.12441898
205	0xbe3d3b37	-0.1847962
206	0x3e46b9f5	0.19406874
207	0x3dfbf687	0.12302881
208	0x3b9107ff	0.004426002
209	0xbbacf7cb	-0.0052785627
210	0xbdba6bd0	-0.09102595
211	0x3d7894df	0.06068885
212	0xbab56a0e	-0.0013840811
213	0x3db3459d	0.08753512
214	0x3e2553c2	0.16145232
215	0xbd84a2c2	-0.06476356
216	0x3c24b756	0.010053476
217	0x3e77c663	0.24196772
218	0x3d684a07	0.056711223
219	0xbd42306b	-0.047409456
220	0xbd71ed71	-0.059064332
221	0x3e2046e4	0.15652043
222	0x3e90f6fc	0.28313434
223	0x3e485b78	0.19566143
224	0xbe2b8622	-0.16750386
225	0x3e4d5ea8	0.2005564
226	0x3e1f63da	0.15565434
227	0xbc9ebd01	-0.019377233
228	0x3e105ab6	0.14097103
229	0x3e75de08	0.2401048
230	0xbe8cf3f4	-0.2752987
231	0xbc24b19f	-0.010052114
232	0x3d4d13bd	0.050067652
233	0x3e3700a3	0.17871337
234	0xbe260d70	-0.16216063
235	0x3e2c7fee	0.16845676
236	0xbdc9d2e3	-0.098546766
237	0xbd34c369	-0.04413167
238	0x3d7c6c01	0.061626438
239	0xbe4fe6f9	-0.20302953
240	0xbc58bbd4	-0.013228375
241	0xbd4d7a88	-0.050165683
242	0x3d048be5	0.032359976
243	0xbdb55310	-0.088537335
244	0x3dc631e0	0.09677482
245	0x3d2170ea	0.039414324
246	0x3db1678b	0.086623274
247	0x3d942556	0.07233684
248	0xbd328f11	-0.04359347
249	0x3c76922b	0.015049498
250	0xbd5a0ff2	-0.053237863
251	0xbe5b2931	-0.21402432
252	0x3e76f5b2	0.24117163
253	0x3d1e0cec	0.038586542
254	0x3e235104	0.15948874
255	0x3e88e9a3	0.2674075

fc3.bias f4 [10]
0	0xbe6e65ad	-0.23280974
1	0xbf6bfe5b	-0.9218499
2	0xbd917cf7	-0.07103913
3	0x3f149706	0.58042943
4	0x3f6576f1	0.89634615
5	0xbc866b02	-0.016408447
6	0x3dbb9f34	0.09161225
7	0xbe25f382	-0.16206172
8	0x3f232b90	0.63738346
9	0xbecd5b1e	-0.4010858
